code/model/model.pth (torch, 422089 bytes, 4 tensors)

linear1.weight f4 [256, 405]
00000000: 0c62 1ebc 3afd a73c aeac c1bc cba7 453d
00000010: 9d4b 663d 7ea6 833d badd 613c 6349 003d
00000020: 3f7e 06ba 3ce4 863d 2be0 f63c c6ca b23c
00000030: 602e 86bd 8022 ce3c a2ae 85bd ed93 6fbd
00000040: 2b59 1fbd 0c92 8dbd c7f2 c5bc 5244 05bb
00000050: 1330 88bb c1bd 583b ba36 e83b 3dfd a5bc
00000060: 9741 f7bc c5ed 64bd 9681 bbbc 89bb a2bc
00000070: 016a 05bc ea97 5abd 4d34 9e3c d0a6 b73b
00000080: f7cf 293c e4db f0bc a5f0 eebc cb9d d53c
00000090: 3084 373c e462 27bd 5f8f 20bd 5d08 7bbd
000000a0: 98ba 5fbc 8dfa 5ebd 86c4 f9bc e383 fdbc
000000b0: 1540 233d bc31 02bc 1771 b53c 3dba 53bc
000000c0: 3c06 45bd ae2a 833c 9728 da3c 3a97 df3c
000000d0: 49e9 99bc f452 00bd 8507 b93c 3a33 b9bc
000000e0: edb3 0f3d 4356 10bd 6027 20bb c1a0 1d3d
000000f0: eaaf 26bc 98d1 c1bb 1d4e d63c 6007 02bb
00000100: 44de aebc be4a 06bd 84cb 243c 7173 5ebc
00000110: 5708 473d 0827 38bd 2c0b c93c de4e fc3c
00000120: 0f6c 4d3d 8ff7 b8bc 46dd 3e3c 237e 103d
00000130: 9358 f53c c578 67bd 501a 573b 5d99 053d
00000140: 2c49 0bbc 049d 2ebd d845 113d a014 3e3b
00000150: fe75 d33b ae04 a83c 755e 80b9 df76 2abd
00000160: e035 603b b03c 61bc 974a 693d a403 38bd
00000170: cad8 863d 5985 2cbd f35d e8bc fd18 193d
00000180: dd9e 6d3b 34b0 f8bc 6ad3 a83c 8d91 053d
00000190: ccaf 79bc 09ca 0dbd 9721 2d3d aaeb 80bc
000001a0: 3fce ef3c 5b5b 1a3d 38e7 2c3c e564 53bc
000001b0: 4acd d13c 66e9 00bd a368 7b3d e848 14bd
000001c0: 06c6 cebc e4e3 623c c744 593d e6d2 fc3c
000001d0: 9ede 3ebc 67ba 0dbd 9394 1a3d 7120 013d
000001e0: 7348 89bc da33 813c 6b39 063d a887 c73b
000001f0: b942 b5bc 84ea 073c 69fd 393d 09e7 f53b
00000200: 0fc7 383d 2781 46bd d97d 563d a0fe 70bc
00000210: 7689 bcbc 343e 29bd a465 3b3c be78 ab3c
00000220: e3cb 493d b17b 09bc 3f50 143d 5cc9 6bbc
00000230: 8943 f93c 31db 253d a3ff dd3c 66d7 f5bc
00000240: f117 523d 443a 4f3c cab9 24bc 9aaa 6b3a
00000250: 8094 52bc 0024 61b9 2811 47bc f7a6 2e3d
00000260: 54da 873c fe7b fb3c 5dc8 313d a3b4 3d3d
00000270: cd82 523d ef2b 74bd f40b 31bd 2bbb 023d
00000280: 36cf 5b3c e032 debc 43b4 313d ded4 03bd
00000290: cfe6 98bc f357 043d 5dd6 123b 8581 c4bb
000002a0: cc19 2dbd 7fcb 383d fc0d 393c 6f9a 2e3d
000002b0: 3abc 3c3c 4e55 803c 8bea 3f3d 9d7d e7bc
000002c0: cfc7 413d 3323 b33c c316 173d 483d 16bd
000002d0: 43dc 3d3d 78b5 033c cc2a 293c d2bc b13c
000002e0: fb51 3d3d 2023 17bb a2ad bbbc 279c 80bb
000002f0: 6756 1b3d b083 af3b 1fc3 8cbc 6b3e 433d
00000300: 9748 dfbc 06b2 0bbd fd80 d5bc 98a4 e03b
00000310: 87af 9cbb f52d 6bbd 0011 b339 1c59 55bc
00000320: d77a 553d 4567 2d3d c04b 033d a0e9 daba
00000330: 2154 f53c c02c cf3a d7ce 983c 3eb2 d13c
00000340: 48c5 4cbc 5dee 113d 656c 8a3d a76d 0ebd
00000350: 877d fc3c 08c7 a6bb 5f04 283b dde7 443d
00000360: 0598 ce3c 5d2d 6bbd 5d64 0d3d 7962 13bd
00000370: 105e 79bc a425 77bc f23f 6b3c 1ba8 353d
00000380: 5d78 153d 31ca 403d 47d9 14bb e5c9 853c
00000390: 30a2 7abc e0f9 bbbb 738b e5bc 40f4 e0ba
000003a0: 438a 4f3d 32b7 11bd 2fd5 debc 550d 1f3d
000003b0: 838b 1c3d 2b82 723c 7175 b0bc e205 a63c
000003c0: 6241 6f3c 68eb 4fbc 22a2 bbbc fa33 d73c
000003d0: b867 1aba bd8c 4a3d 31b4 203d 9435 44bd
000003e0: 8dff 073d 9c66 68bc 7546 3a3d 409b b6bb
000003f0: 1d3a 003d a081 f03a 0fb2 ecbc 4a89 af3c
-0.009666931 0.02050649 -0.02364191 0.048255723 0.056224454 0.0642824 0.013785774 0.031319987
-0.00051305065 0.06586501 0.030136188 0.021825206 -0.06551814 0.025162935 -0.06527449 -0.058490682
-0.038903397 -0.06912622 -0.024163617 -0.0020334912 -0.0041561215 0.0033072087 0.007086602 -0.020262355
-0.030182643 -0.055890817 -0.02288894 -0.019864814 -0.008142949 -0.053367533 0.019312048 0.0056046024
0.010364524 -0.029401727 -0.029167483 0.026076218 0.01120095 -0.040865794 -0.03919923 -0.061287273
-0.013655327 -0.054438163 -0.030489217 -0.030946678 0.039856035 -0.007946428 0.022148652 -0.012922821
-0.04810165 0.016011562 0.026630683 0.02729379 -0.018787997 -0.03132911 0.022586593 -0.022607435
0.0350837 -0.035238516 -0.0024437532 0.038483385 -0.010173777 -0.005914878 0.026160294 -0.0019840822
-0.021346219 -0.032786123 0.0100582875 -0.013577328 0.048591938 -0.044959098 0.02454146 0.030799326
0.05015188 -0.022578983 0.011649435 0.035276543 0.029949462 -0.05651166 0.003282208 0.03261696
-0.008501332 -0.04263021 0.035467 0.0029003993 0.0064532747 0.020510044 -0.00024484438 -0.04161727
0.00342118 -0.013747379 0.0569559 -0.044925347 0.06584318 -0.042119358 -0.028365111 0.037377346
0.003625802 -0.030357458 0.020608623 0.03260951 -0.015239667 -0.034616504 0.042268362 -0.015737373
0.02927315 0.03768478 0.010553174 -0.012902473 0.025610585 -0.031472586 0.061379086 -0.03620234
-0.02524091 0.013848279 0.053044107 0.030862283 -0.011649756 -0.034601595 0.037739348 0.03152508
-0.01675818 0.015771795 0.0327696 0.0060891695 -0.022126542 0.008295659 0.045407686 0.007504348
0.045111712 -0.048463013 0.05236611 -0.014709145 -0.023014765 -0.041319087 0.011437807 0.020931598
0.049266707 -0.008391307 0.03620934 -0.01439127 0.030427711 0.04049224 0.027099436 -0.030009937
0.051292364 0.012648169 -0.010054061 0.000898996 -0.012852788 -0.00021471083 -0.012150086 0.0426397
0.0165836 0.030698773 0.043403972 0.046314847 0.051394273 -0.05961221 -0.04322429 0.03191678
0.013416102 -0.027123868 0.0433848 -0.032185428 -0.018664746 0.032310437 0.0022405603 -0.0059968852
-0.04226093 0.045115944 0.011294838 0.042627748 0.011519486 0.015665676 0.046854537 -0.02825814
0.047309693 0.02186737 0.03688694 -0.036679536 0.046352636 0.008038871 0.010325145 0.021696482
0.04622076 -0.0023061708 -0.022909943 -0.003924865 0.037924197 0.0053562745 -0.017182885 0.04766695
-0.027256293 -0.034105323 -0.026062483 0.0068555586 -0.0047816667 -0.057416875 0.00034154207 -0.013021734
0.052119102 0.042334814 0.032054663 -0.0016701706 0.029947342 0.0015806183 0.018653316 0.025597688
-0.012498207 0.03562771 0.06758956 -0.03477254 0.030821575 -0.0050896443 0.002563737 0.048072685
0.025218973 -0.05741631 0.034519542 -0.035982583 -0.01522018 -0.015084658 0.0143585075 0.04434977
0.03649174 0.047067825 -0.0022712515 0.016331622 -0.015297458 -0.0057365745 -0.028020596 -0.0017162636
0.050668966 -0.0355751 -0.027201263 0.038831074 0.038218986 0.014801542 -0.021540375 0.020266477
0.014602991 -0.012690403 -0.02290446 0.026269902 -0.0005890089 0.049450625 0.039234344 -0.04790266
0.033202697 -0.01418462 0.04547735 -0.0055727065 0.03130542 0.0018349178 -0.028893499 0.02142777

linear1.bias f4 [256]
00000000: e659 babb 58a8 15bd 3c97 8b3b 3819 22bc
00000010: 62bc 3b3c 402f 79bb 1b7d 063d 5f88 1abd
00000020: 488b b7bd 6784 96bd d718 e1bb da0d 853c
00000030: 41b2 773b 084b 743c 7ad6 f13c 788d 2bbd
00000040: 38ce 61bd 3687 4ebd 4ebc 33bd 2bd5 9ebd
00000050: e267 38bd 5737 1c3d 8553 3cbd a8b6 a63b
00000060: efd9 91bd ebcf 9abc 828b 20bd d42b b6bc
00000070: 0be9 0a3d dc4d 85bc 9633 09bd 5346 bbba
00000080: aadd b6bc a96d 7fbd 1a0f 99bd c8ba 0cbc
00000090: 2183 403d ef05 55bd 31ce f13b d1e6 ea3c
000000a0: 9521 4cbd 1fbe 29bc f2dd fa3c bdba fdbc
000000b0: 6272 013c 4c78 11bd 63aa f9bc bba5 543c
000000c0: e34b b5bd ce83 62bb 26cb 883d 06bc 063c
000000d0: 11d9 a5bc 92e3 c7bc 7a21 a43b 3c31 54bc
000000e0: 6508 68bd 098c 24bc e486 1a3b b8ca 213c
000000f0: af67 74bd 115f 3cbd c31b 70bd d752 96bd
00000100: baf0 dc3c 998c a73c 3672 41bc dc28 37bd
00000110: f00e abbb 8840 68bd 110c c43b 64d8 c4bd
00000120: f2c3 5cbd 88c6 883b 4fa5 9cbc e7cc 303d
00000130: 7da2 00bc f400 fdbc 7728 a2bc d8bd 9fbc
00000140: a6e3 54bc 1241 353c 4e0a 55bc c037 f139
00000150: 8ef3 e7bc fb80 7ebd 27c3 3dbd 0403 003d
00000160: 32a0 4dbd c1ae 313d bc3c 3dbd e443 c9bc
00000170: fde7 f8bc a12d f03c 7b98 86bc f794 b33b
00000180: 6f19 f0bc e64e ccbc 9536 443c b431 ebbc
00000190: 152b 37bd 20c0 243c 5f23 12bb f29e c8bb
000001a0: b31f a0bd 98b7 c93b c3e1 d5bd 3c17 a4bd
000001b0: cf12 46bd 7e33 aa3c fc8b 143c 7a0c 91bd
000001c0: 90df 233d 0dba 133d 2262 d13c 2d24 933d
000001d0: dc8e 20bd 4d38 df3b 24c0 563c ca82 6abd
000001e0: 342b 07bd fce7 e73b 1dc0 273d a038 dcbb
000001f0: ffdb 52bd 2bdf 42bd 2ca6 3abc f701 b0bb
00000200: ceb2 fd3c 669d 3d3b 4db9 023d fe09 903d
00000210: 45dd b5bc ab7e 493d 4a3d 3ebc 7727 133d
00000220: 1a47 3dbd 2d17 0fbd 0252 2ebc 9976 2dbc
00000230: b1ff 51bd 84d8 18bd 0b0f 89bc 42b1 223b
00000240: a642 41bd 8cd9 ca3c 63a3 da3c 96ef 333c
00000250: 6d1f 85bd ee37 353d e7ce 063c 8ebb 62bd
00000260: 1ee4 dd3c 186f 36bc b125 063d 8764 24bc
00000270: 9d2d 143c bd4e 7bbd d8d1 bdbc 121c fdbc
00000280: c770 a03c 764a da3c d099 7abc 7149 cfbb
00000290: 6c82 abbd 478a b93c 641e a3bd f3ee a6bb
000002a0: 2d79 19bb eabd a23c b2ee 04bc a72e 58bb
000002b0: 1074 a4bc 30d0 7dbb e0ad 1a3c e67d 94bc
000002c0: 1489 be3b bad0 dfbc 827d 29bd 875e 213c
000002d0: 34b0 79bd a2e7 483c 4d62 d33c 782c 103c
000002e0: e477 c8bb 6872 3c3c 1dce fdbb ec7b c2bc
000002f0: 4f25 9cbb 1ec8 c3bc f52c ccbc 7cf1 9fbb
00000300: 6b57 29bd e9f4 efbc 24e7 57bd ae7d 5b3d
00000310: 9937 e73b 14e6 3dbc 9aa2 a7bc 507f 5bbd
00000320: 235d cfbc a5d2 99bd 3ff4 22bd f8d6 fabc
00000330: 896a 94bd f16b 8fbc 00d5 7dbd 3a94 01bd
00000340: 7898 dbbc 27f0 35bd 19cc 803b e3f3 acbc
00000350: 266c 4fbc c1ad a7bc 869a e5bc 2bf4 05bc
00000360: 5d70 68bc 33f9 183d a4c2 e93a 3b97 fcbc
00000370: cf80 f6bc 0be7 55bb 7826 233c 9503 14bd
00000380: 931a 58bc 2e7e 11bc 52c7 0cbd ad85 b3bd
00000390: 3b14 9abd 3c6a 3dbc 76c4 e6bc f5f4 dbbc
000003a0: fc83 33bd 8206 17bd aa77 c53c d34d 053d
000003b0: 854e 5dbd ecbc 39bd 4573 0abd 12df a1bd
000003c0: 8e99 d5bc 2f5d dfbc c5ff babc 0b18 9dbd
000003d0: 4a23 1bbd 2db8 6dbd b040 53bc a3eb 6bbd
000003e0: 3488 7ebd f379 ff3c 0e2d ce3c 74ef 7fbd
000003f0: 1321 7e3b f34d c83c 3def 76bc 4240 96bc
-0.0056869863 -0.0365375 0.004259972 -0.009893708 0.011458488 -0.0038022548 0.032834154 -0.03772771
-0.08962113 -0.073494725 -0.006869416 0.016241957 0.0037795457 0.014910467 0.029521216 -0.041882962
-0.055128306 -0.050421916 -0.043880753 -0.07755502 -0.045020945 0.038138714 -0.045978088 0.0050876923
-0.07121646 -0.018897971 -0.039195545 -0.022237696 0.033913653 -0.016272478 -0.03349646 -0.0014287926
-0.022322495 -0.06236044 -0.074735835 -0.008589454 0.047000054 -0.05200761 0.0073793163 0.028674515
-0.049836714 -0.01036027 0.03062341 -0.030972833 0.007900806 -0.035515115 -0.030476755 0.012978966
-0.08852365 -0.0034563425 0.066793725 0.008223539 -0.020245107 -0.024400506 0.0050088735 -0.0129511915
-0.05664863 -0.010043153 0.0023578936 0.009874992 -0.059669193 -0.0459891 -0.058620226 -0.07340019
0.026970256 0.020452784 -0.011807015 -0.0447167 -0.0052202865 -0.056702167 0.0059828837 -0.09611586
-0.053897806 0.0041740574 -0.019121794 0.04316416 -0.00785124 -0.030884244 -0.019794686 -0.019499704
-0.012993729 0.011062877 -0.013002945 0.0004600864 -0.028314378 -0.062134724 -0.04632869 0.031252876
-0.050201602 0.04337955 -0.0462005 -0.024568506 -0.030384058 0.029318633 -0.01643013 0.0054804045
-0.029309003 -0.024939965 0.011975904 -0.028710224 -0.04471882 0.010055572 -0.0022298915 -0.0061224634
-0.07818546 0.0061559193 -0.10443451 -0.08012244 -0.04835778 0.020776507 0.009066578 -0.07082458
0.040008128 0.036066104 0.025559489 0.07184634 -0.03919874 0.0068121315 0.013107333 -0.057253636
-0.033000186 0.0070772152 0.040954698 -0.0067206174 -0.051479336 -0.04757611 -0.0113921575 -0.005371328
0.03096905 0.0028932928 0.031914998 0.07033156 -0.022200236 0.049193066 -0.011611292 0.03592631
-0.046210386 -0.03493421 -0.010639669 -0.010587358 -0.051269237 -0.03731586 -0.016730806 0.0024824892
-0.0471827 0.024761938 0.026689237 0.010982415 -0.065001346 0.04424279 0.00822804 -0.055354647
0.027086314 -0.011134885 0.03275079 -0.010033733 0.009044078 -0.061354388 -0.02317135 -0.030897174
0.019585026 0.026646834 -0.015295461 -0.0063258936 -0.083744854 0.022648944 -0.07964781 -0.005094403
-0.0023418174 0.019865949 -0.00811355 -0.0032986791 -0.020074874 -0.0038728826 0.009440869 -0.01812644
0.005814681 -0.027321208 -0.04137946 0.009849197 -0.060959056 0.012262257 0.02580371 0.008799665
-0.0061178077 0.011501886 -0.007745518 -0.023740731 -0.0047651897 -0.023899134 -0.024923781 -0.004881082
-0.041343134 -0.029291587 -0.052710667 0.053586654 0.0070561883 -0.011590499 -0.020463277 -0.05358821
-0.025312966 -0.075108804 -0.039783712 -0.030620083 -0.072468825 -0.017507525 -0.06197071 -0.0316355
-0.026806101 -0.04441848 0.0039305803 -0.021112388 -0.012660062 -0.020468595 -0.028027784 -0.00817589
-0.014186946 0.03734703 0.0017834497 -0.030833831 -0.030090718 -0.0032638933 0.009957902 -0.03613623
-0.01318993 -0.008880181 -0.034369774 -0.08765731 -0.0752339 -0.011560973 -0.028169852 -0.026850203
-0.043827042 -0.03687144 0.024104912 0.032544922 -0.05402996 -0.045346186 -0.033801336 -0.079038754
-0.026074197 -0.027266113 -0.022827039 -0.076706015 -0.03787545 -0.05803697 -0.012893841 -0.057597768
-0.062141612 0.03118608 0.025167968 -0.06248422 0.0038777038 0.024451232 -0.015071687 -0.018341187

linear2.weight f4 [4, 256]
00000000: 4c53 4c3d 5462 1f3d d469 b1bc 5255 61bd
00000010: 9e89 343c fcba 2e3d 5a9f 30bd ac7a 9f3c
00000020: 6a00 5fbd 3697 8a3c 0cd8 e93c d3d3 88bc
00000030: ad56 6bbb ba3b 023d 7c45 0cbd c192 81bd
00000040: 51ef 53bc cb5e 51bc 13de dcbb dac7 60bc
00000050: 678c ebbc 2866 d5bc 2006 c03b f278 003d
00000060: e763 38bd 1a91 423d 50d3 613d 01f8 d7bb
00000070: b8d5 4fbd 2e08 963b e1c8 013c 5c63 3f3c
00000080: 85dc 64bc 58a8 5dbd 2432 d8bb e43b ac3a
00000090: 2a53 153d 7d87 48bc e9f1 303d 59e8 debb
000000a0: f565 023c cad4 733d 1ce4 20bc 6f9a 58bc
000000b0: d637 87bb 1409 b0bc 5246 6aba 4bf7 67bc
000000c0: 6fb0 09bb b0f1 48bd 4550 40bd 944d 37bd
000000d0: 3949 3b3c 32ac 103d 2328 02bd 7766 2a3c
000000e0: 5fc7 52bd 1648 91bc 1638 25bb 50f5 ee3c
000000f0: 4168 1cbd b0c2 b2bb c95a f03a ee5f 80bc
00000100: eeed 8ebc 303b 83bc ff20 653d d80f 67bd
00000110: f276 853c c940 5f3d 6b14 c3bc 832a 4a3b
00000120: c2b5 41bd 4698 16bd b6f1 2bbd 56ee 7dbd
00000130: 3c01 653c 2d12 15bc 2bfd 183b 2470 00bd
00000140: 405c 02bc c45d ad3c dc16 073d 4a5d d83c
00000150: 68d5 37bc fb1c c6bb f87d 573c 43ce 74bd
00000160: 11c3 183d 322e 6f3d 5428 7a3d 5eb2 2b3d
00000170: 69fc 1a3b 9d09 66bc ba48 d33c 29e7 dbbc
00000180: b09e 58bd 2eb2 42bd 23cc 3b3c 46a6 86bc
00000190: 6837 bbbc 6772 5a3d 3538 67bb 8df5 37bd
000001a0: 3239 1fbc 5068 cdbb f66e b43c d33d 97bc
000001b0: 4048 1bbd c8ec 9bbc 9485 e0bc 97c0 3abc
000001c0: c72e 48bd 5894 ab3c 135e 82bc 03ed 5abd
000001d0: 6242 6a3c 136f 3dbc 2045 74bd 6155 8c3c
000001e0: 4f91 aab8 0885 6abc a056 bfbc 0023 65bc
000001f0: 57e9 2bbd a008 a4bb d3f8 83bd 2fc2 c53c
00000200: 7070 74bd ad3c 6abc 2c48 003d 2c9d 3cbd
00000210: 9da5 c93b 8832 91bc 1bc5 81bd b831 19bc
00000220: 1f38 e8bc 12d3 cdbc e839 b5bc e2d2 34bc
00000230: d2ee 7cbc 86da 21bd 655b 093d aca0 0b3d
00000240: 2063 833b 06a1 f23b 2d7d 51bd 7ce3 87bc
00000250: fc18 bdbb c389 bd3c d1fa bdbc 2d7e 18bc
00000260: 8843 413c 0a8b 0fbd 866b 1abd 481e 18bd
00000270: 34e9 35bc ec46 52bd d081 f63b 579b c2bc
00000280: 5b3b 21bd e0dc 2dbb a0bb 11bd 3f3f 46bc
00000290: 4e28 ed3b a7df 0cbd 7e76 783c 24f4 383d
000002a0: 4721 67bc d07f 793d 4c2a abbc 5af0 a3bc
000002b0: ae59 2abd a898 2f3c 23a8 963c 4e85 2b3b
000002c0: 2cea 693b 83fe 9fbb bcb8 bbbc 774b 46bb
000002d0: 8d78 d83c 7148 2dbd cd71 45bc 5d05 cabb
000002e0: 24e0 053d 0c45 b1bb 0036 75bb 1cd6 85bd
000002f0: f0d6 dfbc ec65 8439 4e61 2c3d 2bc0 0a3c
00000300: 2403 3abd 88c0 4fbc ee92 c33a c22c 13bd
00000310: b6f0 f8bb 5eeb 5dbd 87a5 30bc 974b 51bc
00000320: b6d1 4ebd 9819 5e3c 56c0 47bc 3dc4 413d
00000330: 0e22 bebc ddb9 09bd fc60 023d 7c3b d83c
00000340: 83d7 743c 14e1 a5bc c6ff 713d 0404 7c3d
00000350: 196c 89bd 11fb 4fbd 8f7b 6fbc 4c90 883c
00000360: 34a0 593c bef9 56bd 8c9c 21bd 57e0 54bc
00000370: dae6 18bd 6600 4cbc 9a9c 7abd a3c4 b63c
00000380: 3101 fb3a 4dd3 4b3c 503c ccbc b866 8b3b
00000390: 3dd0 ebba 8a05 1d3d 0195 963c 0090 dc3a
000003a0: 0da4 df3c 14a1 89bc 163a 53bd 7af1 643d
000003b0: d644 a83c 0723 cc3c 2eef fc3c 929d 06bd
000003c0: 3d1e 17bd 183e acbc 5482 1c3d 3f48 a33c
000003d0: f09a 30bc d93c 993b e1b9 38bc db1d a03c
000003e0: fbf1 33bd 2a50 d1bc 5a40 86bd 4dcb 053d
000003f0: f8f0 38bc fdc2 e5bc 4f63 843c 17db debb
0.049884126 0.038912132 -0.021656908 -0.05501301 0.011019139 0.04265879 -0.04312072 0.019467674
-0.054443754 0.016917806 0.028545402 -0.016702568 -0.0035909817 0.03179524 -0.034245953 -0.06326819
-0.012935475 -0.012778948 -0.0067403405 -0.013719523 -0.028753472 -0.026049688 0.005860105 0.031365342
-0.04501715 0.04750166 0.055133164 -0.0065908437 -0.050740927 0.004578612 0.007921428 0.011681404
-0.013968592 -0.054115623 -0.006597774 0.0013140407 0.036456265 -0.012239334 0.043199454 -0.0068026003
0.007958879 0.059529103 -0.0098200105 -0.013220414 -0.004126529 -0.021488704 -0.000893687 -0.01415808
-0.0021009704 -0.049058616 -0.04695155 -0.04475172 0.011431032 0.03532047 -0.03177656 0.010400406
-0.051459666 -0.017734569 -0.0025210432 0.029169708 -0.03818536 -0.0054553375 0.0018337603 -0.015670743
-0.017447438 -0.016019434 0.05593967 -0.056411594 0.01629207 0.054505143 -0.023813447 0.0030848093
-0.04729248 -0.036766313 -0.04197856 -0.061994873 0.013977345 -0.009098572 0.002334426 -0.031356946
-0.007956564 0.021162875 0.032980785 0.026411671 -0.011220314 -0.006045935 0.013152592 -0.05976702
0.037295405 0.058393665 0.061073616 0.04191815 0.0023648983 -0.014040378 0.025791515 -0.026843624
-0.05288571 -0.047533207 0.011462244 -0.016436707 -0.022853568 0.05333176 -0.0035281305 -0.04491191
-0.009718226 -0.0062685385 0.022025567 -0.018462097 -0.0379107 -0.019033805 -0.027407445 -0.011398456
-0.048872735 0.02094476 -0.015913999 -0.05344869 0.014298053 -0.011562127 -0.059636235 0.017130556
-8.1332975e-05 -0.014313944 -0.023356736 -0.013985395 -0.041970577 -0.005005911 -0.06443944 0.024140446
-0.05967754 -0.014296693 0.03131883 -0.04604833 0.006153776 -0.01772429 -0.06336423 -0.009350233
-0.028347073 -0.02512506 -0.022122338 -0.0110366065 -0.015437799 -0.03951504 0.033534426 0.034088776
0.0040096194 0.0074044494 -0.051144768 -0.016587965 -0.0057708006 0.023136979 -0.023190888 -0.009307426
0.011795886 -0.035044707 -0.0377002 -0.037138253 -0.011102963 -0.051337168 0.007522799 -0.023755712
-0.039363246 -0.0026529357 -0.035579324 -0.01210004 0.0072374707 -0.03439298 0.0151649695 0.045154706
-0.014107055 0.060912907 -0.020894192 -0.02001207 -0.04158943 0.010717548 0.01839072 0.0026171985
0.0035692556 -0.004882635 -0.022915237 -0.0030257383 0.02642467 -0.042305414 -0.012051058 -0.00616519
0.03268446 -0.0054098424 -0.003741622 -0.06534979 -0.02732417 0.0002525294 0.042084984 0.008468668
-0.04541315 -0.01268018 0.0014921108 -0.035931356 -0.0075970544 -0.05417954 -0.010781652 -0.01277437
-0.050492965 0.013555907 -0.012191853 0.047306288 -0.023209598 -0.03362452 0.031830773 0.026395552
0.01494396 -0.020248927 0.059081815 0.061527267 -0.06710071 -0.050776545 -0.014616861 0.016670369
0.013282824 -0.052484266 -0.039455935 -0.01299294 -0.037329532 -0.012451267 -0.061184503 0.02231056
0.0019150135 0.012440515 -0.024931103 0.0042541884 -0.0017991137 0.03833536 0.018381597 0.0016827583
0.027299905 -0.01680044 -0.051569067 0.055894352 0.020540636 0.024919046 0.030875769 -0.032865115
-0.03689407 -0.021025702 0.038210228 0.01993191 -0.0107791275 0.004676443 -0.011274786 0.019545486
-0.043931942 -0.02555092 -0.06555243 0.032664586 -0.01128792 -0.02804708 0.016160635 -0.00680102

linear2.bias f4 [4]
00000000: a26a 5b3d c6c9 1b3b 98b4 99bb f549 d53c
0.05356849 0.002377139 -0.004690718 0.026036242
